outputs/model.pth (torch, 337140 bytes, 6 tensors)

conv1.weight f4 [128, 3, 5, 5]
0.08865282 0.08618478 0.017027339 0.0003098837 0.03146142 0.02864937 -0.032682568 -0.0887686
-0.01812059 0.004636519 0.028224424 -0.09899705 -0.08895753 0.09663238 0.04447997 -0.12846573
0.027758872 -0.05461526 0.06536821 -0.06821937 0.04683568 0.00022951752 0.09162897 -0.11710056
-0.10501106 -0.102810524 0.08515877 -0.001746689 -0.01267301 0.005372238 0.009745152 -0.06281908
0.005695983 0.07386391 0.047372635 -0.11029589 0.11242244 -0.0031775595 0.059008308 -0.035451286
0.10181271 0.09100832 0.09500089 -0.08495778 -0.03974751 0.085068956 0.008012535 0.047281403
0.10932169 -0.009741687 0.09752355 -0.12674126 -0.04589302 -0.098944716 0.07454025 -0.01986963
0.036716722 0.005046016 -0.13425958 -0.09813852 -0.072653584 0.051737096 0.05575386 0.07571672
-0.1348578 -0.08164693 -0.11332046 -0.12128589 0.09073029 -0.1223608 -0.093544245 -0.11891509
-0.0492854 -0.11687864 0.09522679 0.02978089 0.022810588 0.05821834 -0.033586964 -0.046736512
0.06819198 0.11182449 -0.12617104 0.10727441 0.09487438 -0.09925888 -0.069496475 0.011269231
-0.09754613 0.13684747 -0.10547009 0.098797575 0.07588173 -0.04204227 -0.059978783 -0.1554083
0.08553861 0.06215436 -0.10366448 -0.10854454 0.0905697 -0.06660231 -0.12437926 0.11148554
-0.12112449 0.045680627 -0.004739569 0.039811116 0.05531448 -0.053333744 -0.064319395 0.027312567
-0.12939729 0.024147505 0.033080656 -0.078126036 0.071650885 0.039928503 0.14615181 0.06190959
-0.14199401 0.08214354 0.022043943 0.016022198 -0.010410406 -0.052888308 0.060178403 0.053326912
0.103481434 -0.050307523 -0.07819427 0.07164923 0.08091482 0.012905938 -0.09499047 -0.08916925
-0.022713723 0.048646547 -0.033046354 0.0036703444 0.0042117806 0.036633685 -0.08129018 0.15687943
0.007003236 -0.11835802 0.03267732 -0.037236612 0.09398422 -0.10283745 0.0787577 0.07433299
-0.12270642 0.087010585 -0.08595294 -0.07458334 0.065203495 -0.08896329 0.04114315 -0.099987864
-0.05404605 -0.034076765 -0.0074076136 -0.025395812 -0.021177914 0.044346422 -0.10033676 0.036485035
0.03622676 -0.118269175 0.09560675 -0.013746674 -0.025911048 -0.055439193 0.040368322 -0.08894771
0.074501716 0.09585546 -0.04203331 0.07973855 -0.10337604 0.078847766 -0.04311478 0.1021351
0.021375129 0.014534819 -0.07997734 -0.058155913 -0.03188674 0.03574501 0.081005454 0.08971941
0.07687921 -0.11703316 0.065028325 -0.079594895 0.047653966 -0.020050429 -0.049573366 0.056626122
0.04089005 0.060737975 0.040089596 0.06595318 -0.010482097 0.07929961 -0.05833405 -0.1147182
-0.034214526 0.06614983 0.036360826 0.050510332 0.0145153105 -0.05923677 0.0018386502 -0.11482518
-0.06797346 0.016411703 0.0078258 -0.015295488 0.036613315 -0.09421308 -0.01830322 -0.06512333
-0.085992076 0.052799203 0.009704818 0.012233385 -0.10110744 -0.12257959 0.08494412 -0.009953843
-0.042171057 -0.11404129 -0.03748907 0.066072784 0.0046512396 0.10035575 0.082351096 -0.023134777
0.056309972 0.07763426 -0.015417471 0.03594274 0.09956899 0.0015729225 -0.03523554 0.023909314
-0.08985409 -0.1258266 0.014582781 0.09256471 -0.04773589 0.09588408 0.051319983 0.08679034
00000000: 9c8f b53d a581 b03d eb7c 8b3c e377 a239
00000010: b1dd 003d 15b2 ea3c 28de 05bd 50cc b5bd
00000020: a271 94bc f1ed 973b e836 e73c f7be cabd
00000030: 5e2f b6bd 32e7 c53d a130 363d 858c 03be
00000040: 9366 e33c 40b4 5fbd c5df 853d 99b6 8bbd
00000050: c5d6 3f3d a4aa 7039 f8a7 bb3d 6bd2 efbd
00000060: 0a10 d7bd 538e d2bd b967 ae3d 28f1 e4ba
00000070: 75a2 4fbc 9909 b03b 21aa 1f3c 4aa7 80bd
00000080: 5ea5 ba3b f645 973d cf09 423d d0e2 e1bd
00000090: bc3d e63d 9a3e 50bb b2b2 713d 5e35 11bd
000000a0: 2f83 d03d 9262 ba3d d48f c23d 58fe adbd
000000b0: 49ce 22bd a238 ae3d 0247 033c 25aa 413d
000000c0: 0de4 df3d 999b 1fbc 6dba c73d 76c8 01be
000000d0: 52fa 3bbd 87a3 cabd 8fa8 983d a2c5 a2bc
000000e0: 4664 163d 0d59 a53b 587b 09be d9fc c8bd
000000f0: 67cb 94bd 47ea 533d 295e 643d 5e11 9b3d
00000100: 2a18 0abe 8136 a7bd 8f14 e8bd bd64 f8bd
00000110: cdd0 b93d 4d98 fabd 2094 bfbd c189 f3bd
00000120: 7ddf 49bd 125e efbd 4306 c33d 0ef7 f33c
00000130: 45dd ba3c 5b76 6e3d 7c92 09bd c96e 3fbd
00000140: 3da8 8b3d 3d04 e53d fb32 01be b0b2 db3d
00000150: 804d c23d 3d48 cbbd 2b54 8ebd 95a2 383c
00000160: 44c6 c7bd be21 0c3e b400 d8bd 6256 ca3d
00000170: e167 9b3d 8434 2cbd 50ac 75bd 5a23 1fbe
00000180: de2e af3d 9295 7e3d 0b4e d4bd 9a4c debd
00000190: 9b7c b93d cb66 88bd 8eba febd 8852 e43d
000001a0: 1e10 f8bd 9c1b 3b3d 634e 9bbb fb10 233d
000001b0: 7091 623d 7c74 5abd e3b9 83bd 9bbe df3c
000001c0: b980 04be fdd0 c53c 957f 073d 8b00 a0bd
000001d0: b3bd 923d 128c 233d d2a8 153e e994 7d3d
000001e0: e166 11be df3a a83d 8095 b43c fc40 833c
000001f0: 6890 2abc 69a1 58bd a17d 763d 526d 5a3d
00000200: 13ee d33d 430f 4ebd 5124 a0bd d5bc 923d
00000210: abb6 a53d 6d73 533c 5d8a c2bd 5e9e b6bd
00000220: 2112 babc 9a41 473d 9d5b 07bd 298a 703b
00000230: fa02 8a3b 340d 163d 777b a6bd 00a5 203e
00000240: 677b e53b b165 f2bd a7d8 053d 6b85 18bd
00000250: cc7a c03d 719c d2bd b84b a13d e53b 983d
00000260: 814d fbbd 9b32 b23d 1808 b0bd 26bf 98bd
00000270: 6989 853d 6332 b6bd b885 283d 70c6 ccbd
00000280: 645f 5dbd 1494 0bbd 91bb f2bb e10a d0bc
00000290: 4e7d adbc 98a4 353d 5c7d cdbd 5571 153d
000002a0: 8362 143d 1c37 f2bd 79cd c33d bb39 61bc
000002b0: 6843 d4bc 3514 63bd 4159 253d 382a b6bd
000002c0: 5b94 983d de4f c43d 1f2b 2cbd f74d a33d
000002d0: d1b6 d3bd f07a a13d 2099 30bd 352c d13d
000002e0: e51a af3c 7323 6e3c 29cb a3bd e534 6ebd
000002f0: ac9b 02bd 5c69 123d 30e6 a53d cfbe b73d
00000300: d972 9d3d 15af efbd 922d 853d a602 a3bd
00000310: ce30 433d cc40 a4bc 710d 4bbd cbf0 673d
00000320: 537c 273d 62c8 783d fd34 243d 7612 873d
00000330: 1abd 2bbc d567 a23d afef 6ebd 60f1 eabd
00000340: 8824 0cbd 9079 873d 17ef 143d ece3 4e3d
00000350: a0d1 6d3c 41a2 72bd ddfe f03a 7729 ebbd
00000360: ab35 8bbd d671 863c c937 003c ed99 7abc
00000370: d8f7 153d caf2 c0bd a2f0 95bc 615f 85bd
00000380: 9d1c b0bd fa43 583d f500 1f3c 896e 483c
00000390: 6b11 cfbd 020b fbbd 2ff7 ad3d 7215 23bc
000003a0: 8fbb 2cbd 7b8e e9bd 248e 19bd 2b51 873d
000003b0: 6d69 983b 5187 cd3d b1a7 a83d 2585 bdbc
000003c0: 49a5 663d b6fe 9e3d 8f99 7cbc b238 133d
000003d0: d4ea cb3d 852a ce3a 2453 10bd 77dd c33c
000003e0: 6c05 b8bd b0d8 00be 9eec 6e3c 9192 bd3d
000003f0: b586 43bd df5e c43d e734 523d 22bf b13d

conv1.bias f4 [128]
0.11758683 0.08547854 0.047124725 -0.12752238 -0.07590364 -0.06752851 0.0431601 0.09448749
0.26452255 -0.0040909983 0.0031358951 0.032396767 -0.1430142 -0.036150772 -0.09614949 -0.17996123
-0.036159676 -0.12160678 -0.028704952 -0.14199471 0.05971639 -0.10744231 -0.04810973 -0.0037536074
-0.10170562 -0.021787787 0.01855734 0.15348856 -0.049761187 -0.0058024786 -0.09554504 0.06933369
0.024381379 0.151395 0.036847085 0.087126695 0.17201819 0.09729478 -0.09716597 0.06549698
0.12651008 0.009903843 0.03472835 0.16401333 -0.019342208 0.022254175 0.03534205 0.15279023
-0.07822947 0.05869535 0.16770886 -0.05159328 0.119089134 -0.07856288 0.09676511 -0.133565
0.09574864 0.20680894 -0.015252135 0.026841527 -0.06960784 -0.068046376 0.034128826 0.025920719
0.11538075 0.025121722 -0.08511157 0.114244975 -0.033417217 0.17107114 0.2385868 -0.12737328
-0.036634624 -0.025487948 0.015224733 0.031805225 0.20039594 0.030890333 0.09837194 0.012290744
0.0046997373 0.06561832 0.10709503 0.15404518 0.07828403 -0.1111984 0.019943226 0.19633448
-0.05990781 -0.15759438 0.06511886 0.1490898 -0.04647317 -0.078106746 0.14245139 -0.033042938
-0.08022241 -0.13823295 -0.06251044 -0.15486263 -0.112671554 0.11162309 -0.028616032 -0.10215188
-0.14391766 -0.1269319 0.01078546 0.14368899 0.046150293 -0.123909645 0.095745325 -0.12131785
0.14992957 0.05975005 0.054392707 0.022734147 -0.08880853 0.044124343 -0.14984348 0.09798992
-0.08674985 0.198589 -0.08130201 0.07442665 -0.15271892 -0.10925958 0.035129424 0.009142877
00000000: 5dd1 f03d 5f0f af3d db05 413d 3a95 02be
00000010: 5e73 9bbd 634c 8abd a5c8 303d a882 c13d
00000020: 806f 873e c80d 86bb 9783 4d3b 79b2 043d
00000030: 5072 12be d512 14bd 06ea c4bd c247 38be
00000040: 2b1c 14bd fa0c f9bd a626 ebbc 1067 11be
00000050: 2c99 743d b70a dcbd b50e 45bd 15ff 75bb
00000060: 094b d0bd 4d7c b2bc 9005 983c 1b2c 1d3e
00000070: 63d2 4bbd b822 bebb 1ead c3bd d2fe 8d3d
00000080: 75bb c73c 4a07 1b3e f8ec 163d 7b6f b23d
00000090: 8925 303e 7c42 c73d f4fe c6bd 4823 863d
000000a0: dc8b 013e ba43 223c 503f 0e3d 1cf3 273e
000000b0: 8d73 9ebc 634e b63c d3c2 103d 0b75 1c3e
000000c0: c636 a0bd 896a 703d dfbb 2b3e 7a53 53bd
000000d0: 01e5 f33d 93e5 a0bd c92c c63d 43c5 08be
000000e0: dd17 c43d b9c5 533e 17e4 79bc c3e2 db3c
000000f0: 8e8e 8ebd e65b 8bbd abca 0b3d b057 d43c
00000100: be4c ec3d 12cc cd3c fa4e aebd 45f9 e93d
00000110: 7ee0 08bd 462d 2f3e 1950 743e 246e 02be
00000120: 300e 16bd 1acc d0bc 2971 793c 3246 023d
00000130: 9834 4d3e b90d fd3c 3a77 c93d 1e5f 493c
00000140: 4100 9a3b e662 863d a454 db3d 05be 1d3e
00000150: 6153 a03d fdbb e3bd fa5f a33c e80b 493e
00000160: e461 75bd 6c60 21be 095d 853d ffaa 183e
00000170: a75a 3ebd 6ef6 9fbd c7de 113e 0858 07bd
00000180: a64b a4bd f08c 0dbe 7905 80bd 4f94 1ebe
00000190: 58c0 e6bd a69a e43d 2b6c eabc 0135 d1bd
000001a0: 275f 13be 70fa 01be 7fb5 303c 3523 133e
000001b0: 1708 3d3d 57c4 fdbd 2016 c43d 7e75 f8bd
000001c0: 2387 193e 78bc 743d e3ca 5e3d f63c ba3c
000001d0: 3fe1 b5bd babb 343d 9270 19be f0ae c83d
000001e0: e8a9 b1bd ea5a 4b3e ab81 a6bd 006d 983d
000001f0: 5962 1cbe 7dc3 dfbd dfe3 0f3d 01cc 153c

conv2.weight f4 [64, 128, 3, 3]
-0.023748104 -0.017556783 -0.026280886 0.025910944 -0.011375088 0.019639796 -0.009747566 0.004361003
-0.009062537 0.016151292 0.02877551 0.025845893 0.009016573 -0.066315204 -0.016023755 0.059233062
-0.00048577716 0.041318446 -0.0152971875 0.011397257 0.0061559584 -0.012596975 -0.022535758 0.0011141085
0.0070022414 -0.017514333 0.028737692 -0.023915272 0.016174357 0.02879509 -0.002537608 -0.015844533
0.00095332286 -0.021235311 -0.008664976 0.032377083 -0.081191935 0.024706881 -0.08165428 0.00553461
0.06344791 -0.10666918 0.008663191 0.07760494 -0.15047422 0.015790613 0.023782745 0.02039249
-0.014505443 0.00025414056 0.0037747205 0.00016026136 -0.0043015825 0.0317103 -0.018959414 -0.016757423
0.016774522 0.011369315 0.003955572 0.01701385 -0.021619365 -0.009434917 -0.025091968 -0.006944513
-0.03132497 0.0044827852 0.027764926 0.00062281085 -0.049552966 0.015818132 -0.0023228105 0.0144300815
0.033914056 -0.019816525 -0.015924657 0.0033445526 -0.0030417095 0.016213743 0.03466716 0.028304739
0.08056782 0.013578025 0.02667348 0.024212578 -0.021298094 -0.020224117 -0.020914078 -0.008901109
0.014263981 0.013579057 0.023200424 0.007220738 -0.00075478596 -0.0021451649 0.025233243 0.03663194
-0.020282239 0.02554757 0.0063453536 0.009108643 -0.021432728 -0.022097263 -0.024649972 0.004700973
-0.0015554305 -0.0064248745 0.016567286 0.02302667 0.003759098 0.02636104 -0.014555123 -0.0064782947
0.030763008 0.045292556 0.01712498 -0.0066164914 -0.0019793352 0.016929485 0.027084362 -0.0026966045
0.0037722136 -0.011275237 -0.009640852 0.027790336 -0.006246192 0.0033823568 0.017325303 0.023298549
-0.02910825 -0.011493729 -0.0244848 0.020638248 -0.008724833 -0.017380472 -0.019298024 0.013366947
-0.007061273 0.014305079 0.03676431 0.0037625432 0.024124162 0.01370193 0.04204056 0.006943893
-0.01056406 0.0021591552 0.07622071 -0.06468726 0.008442774 0.013915059 -0.05747956 0.03577662
0.03188395 0.0009353735 -0.015128369 -0.028696328 0.022850852 0.029692117 0.026172604 0.008848327
0.0018523453 -0.015446257 0.0039419145 -0.025852602 -0.019714639 0.0069404542 0.03247456 0.0052007413
0.004770455 0.0024256448 0.01480254 0.020224703 0.005164364 0.042049427 0.03341882 0.028237754
0.04126065 -0.011337563 0.04226291 -0.00017903435 -0.01936638 -0.011110999 0.022749392 0.014926306
-0.00721878 0.014266733 0.0074923155 0.033110965 0.00024540926 -0.021073073 0.012469256 0.00042351522
-0.015175475 -0.014651077 -0.01640821 -0.019811366 -0.026979512 0.023907395 0.035874087 0.0033783596
-0.0024417322 -0.00361373 0.009167926 0.00834866 0.009279834 0.026562896 0.013111373 -0.021494353
-0.022889309 0.0032970023 -0.019925077 -0.005546711 0.0021425744 0.019387996 -0.020398824 -0.026753642
-0.0037499797 0.050436288 0.014015596 -0.026472392 0.06279265 0.041259844 -0.008419107 0.03849726
-0.047025956 0.003900651 -0.024204602 0.026658937 0.023043446 -0.025651151 -0.0014902226 0.039209537
-0.010167714 0.007847576 -0.02636395 -0.035357747 -0.07263141 -0.009914742 -0.027851773 -0.03364658
-0.019345988 -0.039251238 -0.026009243 0.06370757 -0.007145488 -0.06888527 0.09167905 -0.03539443
-0.122281305 0.04586557 -0.011977598 -0.040621605 -0.018122865 -0.01422309 -0.017015183 0.009728082
00000000: 628b c2bc 3ed3 8fbc 034b d7bc 3043 d43c
00000010: 945e 3abc a3e3 a03c 41b4 1fbc bfe6 8e3b
00000020: 097b 14bc b74f 843c 9eba eb3c c4ba d33c
00000030: 40ba 133c 44d0 87bd 4044 83bc 5e9e 723d
00000040: e8af feb9 883d 293d 0ea1 7abc 90bb 3a3c
00000050: ecb7 c93b 8b63 4ebc e99c b8bc 4707 923a
00000060: 0f73 e53b 387a 8fbc 4f6b eb3c f6e9 c3bc
00000070: 1680 843c aee3 eb3c ff4d 26bb 65cc 81bc
00000080: 6ae8 793a adf5 adbc 8bf7 0dbc d59d 043d
00000090: f547 a6bd 1666 ca3c 5c3a a7bd ac5b b53b
000000a0: faf0 813d 5f75 dabd 0ff0 0d3c 57ef 9e3d
000000b0: ea15 1abe 515b 813c 08d4 c23c 270e a73c
000000c0: 3da8 6dbc 2b3e 8539 4d61 773b d50b 2839
000000d0: 4af4 8cbb a9e2 013d c650 9bbc dd46 89bc
000000e0: b96a 893c 5d46 3a3c be9d 813b a160 8b3c
000000f0: 181b b1bc e994 1abc ac8d cdbc cc8e e3bb
00000100: 9d4e 00bd 54e4 923b 4573 e33c 2144 233a
00000110: 0df8 4abd 0795 813c 4b3a 18bb 266c 6c3c
00000120: 77e9 0a3d 4456 a2bc 6d74 82bc 4830 5b3b
00000130: 6b57 47bb afd2 843c 27ff 0d3d 57df e73c
00000140: be00 a53d 5d76 5e3c 5882 da3c 7559 c63c
00000150: 5779 aebc 0cad a5bc 0054 abbc f5d5 11bc
00000160: 79b3 693c b17a 5e3c d10e be3c f19b ec3b
00000170: d4dc 45ba e595 0cbb f2b5 ce3c 600b 163d
00000180: f026 a6bc 2349 d13c afec cf3b 6b3c 153c
00000190: b093 afbc 5205 b5bc bdee c9bc 9f0a 9a3b
000001a0: 96df cbba c187 d2bb 1eb8 873c 6da2 bc3c
000001b0: 335b 763b 1cf3 d73c 9c78 6ebc e047 d4bb
000001c0: b402 fc3c b084 393d b049 8c3c 27cf d8bb
000001d0: bcb7 01bb b4af 8a3c 06e0 dd3c 84b9 30bb
000001e0: 3e37 773b c6bb 38bc aaf4 1dbc 8fa8 e33c
000001f0: dbac ccbb 88aa 5d3b cbed 8d3c 99dc be3c
00000200: 6d74 eebc 3250 3cbc 5994 c8bc 8b11 a93c
00000210: 9af2 0ebc 7e61 8ebc e416 9ebc 0a01 5b3c
00000220: 4062 e7bb da5f 6a3c 2c96 163d 0095 763b
00000230: 09a0 c53c 0f7e 603c b932 2c3d 9989 e33b
00000240: e114 2dbc 9d80 0d3b 9b19 9c3d c17a 84bd
00000250: 9053 0a3c fdfb 633c b06f 6bbd 818a 123d
00000260: bf98 023d da33 753a fbdc 77bc 9014 ebbc
00000270: b631 bb3c e23c f33c ee67 d63c 93f8 103c
00000280: 65ca f23a 4c12 7dbc 2d2b 813b d6c8 d3bc
00000290: 9880 a1bc c06c e33b 0b04 053d fb6a aa3b
000002a0: 7a51 9c3b 91f7 1e3b 5a86 723c 47ae a53c
000002b0: d339 a93b 053c 2c3d 2ce2 083d dd52 e73c
000002c0: ed00 293d 30c1 39bc e01b 2d3d 2bbb 3bb9
000002d0: 3ea6 9ebc e80a 36bc ef5c ba3c 778d 743c
000002e0: 848b ecbb 04bf 693c 1982 f53b 5d9f 073d
000002f0: 46aa 8039 70a1 acbc da4b 4c3c 400b de39
00000300: 8ea2 78bc 120b 70bc 836a 86bc 724b a2bc
00000310: 2304 ddbc 71d9 c33c b5f0 123d 7867 5d3b
00000320: 7805 20bb 54d4 6cbb 1235 163c d1c8 083c
00000330: 720a 183c 6e9a d93c 16d1 563c ed14 b0bc
00000340: 5c82 bbbc 8512 583b ea39 a3bc 2fc1 b5bb
00000350: 6f6a 0c3b 93d3 9e3c 6f1b a7bc 742a dbbc
00000360: 38c2 75bb 4896 4e3d aca1 653c a1dc d8bc
00000370: 6f99 803d 1500 293d 4bf0 09bc 4eaf 1d3d
00000380: 4a9e 40bd 10a2 7f3b bb48 c6bc d863 da3c
00000390: 9cc5 bc3c 5d22 d2bc 9353 c3ba 2e9a 203d
000003a0: 7c96 26bc 1f93 003c 36f9 d7bc 49d3 10bd
000003b0: c7bf 94bd 7171 22bc 6729 e4bc ffd0 09bd
000003c0: 7a7b 9ebc e8c5 20bd 5611 d5bc 1d79 823d
000003d0: b324 eabb b813 8dbd 3ac2 bb3d c0f9 10bd
000003e0: 9f6e fabd 89dd 3b3d b03d 44bc d762 26bd
000003f0: 6776 94bc f707 69bc 6d63 8bbc 8962 1f3c

conv2.bias f4 [64]
-0.03313301 0.004660656 0.01901525 -0.03564812 -0.032955427 0.00035892444 -0.008915674 0.018893529
-0.032131784 -0.0058964016 -0.005100792 -0.021642642 0.003717905 -0.024008911 -0.029925916 -0.0026673742
-0.033844333 -0.043477017 0.04490844 -0.0030554058 -0.03521384 -0.017689668 -0.00020889986 -0.0024587288
0.0017238784 -0.026435392 -0.033143934 -0.031546123 0.010760476 0.0051217987 -0.01917326 0.01861081
0.009961851 -0.0021300681 -0.030501274 -0.04649043 -0.034409422 -0.02304206 -0.019417347 -0.067732744
-0.008265414 -0.008712889 -0.03910357 -0.008833305 -0.019410366 0.0017929887 -0.026726983 -0.03392774
-0.032993216 -0.024927715 -0.024252534 -0.011969709 0.023195302 0.020208206 0.0068807323 -0.013267568
0.0053470973 -0.027574543 -0.013843847 0.0075994334 0.14287892 -0.008098624 -0.013534257 -0.023368957
00000000: 7bb6 07bd 6bb8 983b dfc5 9b3c c303 12bd
00000010: 45fc 06bd 062e bc39 0c13 12bc 9ac6 9a3c
00000020: 9e9c 03bd 9a36 c1bb 8b24 a7bb e94b b1bc
00000030: 18a8 733b 56ae c4bc 3227 f5bc 1dcf 2ebb
00000040: 5ba0 0abd f514 32bd eaf1 373d 343d 48bb
00000050: 633c 10bd ece9 90bc 210c 5bb9 a022 21bb
00000060: c3f3 e13a 098f d8bc efc1 07bd 8236 01bd
00000070: b54c 303c c3d4 a73b 3e11 9dbc b375 983c
00000080: 0837 233c 9d98 0bbb cfdd f9bc c06c 3ebd
00000090: e5f0 0cbd b4c2 bcbc 2111 9fbc 77b7 8abd
000000a0: a96b 07bc 81c0 0ebc 112b 20bd 91b9 10bc
000000b0: 7d02 9fbc b802 eb3a 8cf2 dabc d0f7 0abd
000000c0: e523 07bd 3535 ccbc 40ad c6bc 991c 44bc
000000d0: 1304 be3c ae8b a53c c477 e13b 3760 59bc
000000e0: b436 af3b 02e4 e1bc 4ed1 62bc ab04 f93b
000000f0: da4e 123e 17b0 04bc cabe 5dbc 4170 bfbc

conv3.weight f4 [3, 64, 1, 1]
0.046560895 0.023265444 0.06564341 0.011492569 -0.09601491 -0.039357964 0.021580182 -0.107293844
-0.017948799 -0.03793402 0.03746677 0.0610347 -0.06679212 0.0823736 -0.082464114 -0.006896314
0.007227902 -0.021152651 -0.09175202 -0.04592526 0.11732531 0.07062561 -0.06775199 -0.08917977
-0.03023909 0.03161743 0.0016194961 0.026690127 0.04480832 -0.095869325 -0.11317597 -0.08606471
-0.088801205 0.10160064 -0.07743651 0.10674517 -0.0009903486 0.005585016 0.12193639 0.10971645
0.097433485 0.04309723 0.089497454 0.06858186 0.09924645 -0.0036169908 -0.042780194 0.06849359
-0.04077655 0.08550611 -0.055707593 0.058038626 -0.08650888 -0.0882603 0.10359096 0.061268903
-0.1179034 -0.029496063 -0.007906021 -0.027668096 -0.13102639 0.008938074 -0.094531365 0.084644064
0.052177005 0.09314721 -0.10168126 0.06155029 -0.0045334212 -0.059308585 0.07671626 0.06750408
0.005134663 -0.05856046 -0.059863925 0.081643745 0.009921964 -0.016599309 -0.028277753 -0.11577019
-0.114647396 -0.07879571 -0.040597968 -0.0459446 0.08609249 0.099134065 0.067070805 -0.07417544
-0.04046801 0.02117059 -0.01782517 -0.107016444 -0.06859161 0.062253945 -0.10786881 -0.21701111
-0.10413454 -0.04295094 -0.05343637 0.09622479 0.02657592 0.12748304 0.05430221 0.13982823
0.05498782 -0.072680674 0.05269372 -0.029678434 -0.06667429 0.0012814987 -0.029499818 -0.09133628
0.07431746 0.059553854 -0.07656703 0.036770977 0.08205852 -0.109784134 -0.058099262 -0.08705869
0.039479677 -0.03797701 -0.05074016 -0.04025579 -0.12064477 0.03599446 0.089692295 -0.0040702038
0.10367034 -0.0837562 -0.102533646 0.056303214 0.041008703 0.039083563 0.10093583 0.027501754
0.13464876 0.017206656 0.034901887 0.004398677 -0.058450177 0.05959566 0.07790366 -0.017335456
0.12028056 -0.1279763 0.067926824 -0.10491717 0.042972323 -0.034087963 0.08177063 -0.044672836
0.02558776 0.008848128 -0.035889108 0.09485741 -0.0442376 0.08044528 0.07357408 -0.073343985
0.12765671 -0.014628762 0.035384346 0.08370765 -0.03503856 0.091828234 0.08255449 0.006621201
-0.11835661 -0.11014211 0.0045536594 0.10412202 0.04364454 -0.111141935 0.01671193 0.051257893
0.007843245 -0.059107047 0.09231674 -0.06202294 0.020351503 -0.108872965 -0.10130759 0.0401486
-0.033692423 -0.0845079 0.038087074 -0.018920163 -0.131932 -0.036902677 -0.020185411 0.025666812
00000000: a3b6 3e3d 2c97 be3c 0d70 863d 544b 3c3c
00000010: 77a3 c4bd d135 21bd ecc8 b03c e0bc dbbd
00000020: 5c09 93bc b460 1bbd c176 193d 86ff 793d
00000030: 4fca 88bd 7db3 a83d f2e2 a8bd 7afa e1bb
00000040: 09d8 ec3b 5348 adbc 7ce8 bbbd 201c 3cbd
00000050: 4148 f03d 29a4 903d 8ec1 8abd e2a3 b6bd
00000060: f8b7 f7bc 4781 013d 4645 d43a 41a5 da3c
00000070: ee88 373d 2357 c4bd cec8 e7bd b242 b0bd
00000080: 68dd b5bd ff13 d03d 0897 9ebd 369d da3d
00000090: 96ce 81ba 8302 b73b c9b9 f93d 05b3 e03d
000000a0: 358b c73d b986 303d 714a b73d a574 8c3d
000000b0: b941 cb3d 090b 6dbb 493a 2fbd 5e46 8c3d
000000c0: 5005 27bd d41d af3d a52d 64bd e9b9 6d3d
000000d0: 912b b1bd d1c1 b4bd 7f27 d43d 1af5 7a3d
000000e0: 5677 f1bd baa1 f1bc 4188 01bc 34a8 e2bc
000000f0: c82b 06be 0071 123c a999 c1bd de59 ad3d
00000100: 8eb7 553d f7c3 be3d 443e d0bd 281c 7c3d
00000110: 188d 94bb 8fed 72bd 6a1d 9d3d 943f 8a3d
00000120: ad40 a83b 18dd 6fbd e033 75bd d634 a73d
00000130: bc8f 223c 46fb 87bc bfa6 e7bc ec18 edbd
00000140: 41cc eabd a55f a1bd 0e4a 26bd 6830 3cbd
00000150: 4251 b03d cd06 cb3d 6b5c 893d 4be9 97bd
00000160: c9c1 25bd f26d ad3c 1706 92bc 702b dbbd
00000170: c279 8cbd fefd 7e3d 53ea dcbd 2938 5ebe
00000180: 7d44 d5bd 53ed 2fbd 18e0 5abd 8111 c53d
00000190: beb5 d93c ea8a 023e ff6b 5e3d 222f 0f3e
000001a0: e93a 613d 9bd9 94bd 5fd5 573d 3020 f3bc
000001b0: 888c 88bd f6f7 a73a 9aa9 f1bc 840e bbbd
000001c0: c133 983d beee 733d 2dcf 9cbd 2a9d 163d
000001d0: 4c0e a83d 81d6 e0bd 7ef9 6dbd d44b b2bd
000001e0: 71b5 213d c88d 1bbd ead4 4fbd 41e3 24bd
000001f0: 9b14 f7bd ed6e 133d 98b0 b73d 585f 85bb
00000200: 1d51 d43d 5f88 abbd 29fd d1bd 339e 663d
00000210: bef8 273d 1616 203d 72b7 ce3d 5c4b e13c
00000220: 5de1 093e f9f4 8c3c 48f5 0e3d c722 903b
00000230: 7469 6fbd 941a 743d f48b 9f3d 1603 8ebc
00000240: a755 f63d 380c 03be 381d 8b3d d0de d6bd
00000250: bf03 303d d29f 0bbd 5c77 a73d ddfa 36bd
00000260: 6c9d d13c bdf7 103c 7500 13bd 9a44 c23d
00000270: 7c32 35bd 7fc0 a43d 02ae 963d 5f35 96bd
00000280: 71b8 023e 7aad 6fbc 2def 103d eb6e ab3d
00000290: 9884 0fbd 7110 bc3d 5412 a93d a9f6 d83b
000002a0: f364 f2bd 3092 e1bd dd36 953b ed3d d53d
000002b0: 9ec4 323d 629e e3bd 75e7 883c ccf3 513d
000002c0: f480 003c 3b1a 72bd 8f10 bd3d c40b 7ebd
000002d0: 32b8 a63c caf8 debd 5b7a cfbd dc72 243d
000002e0: 1101 0abd 7a12 adbd 3101 1c3d 75fe 9abc
000002f0: 2f19 07be 4327 17bd e05b a5bc 3543 d23c

conv3.bias f4 [3]
0.429386 0.45866904 0.47900537
00000000: 7bd8 db3e abd6 ea3e 3140 f53e
